…
1996/2002Warning: shot 166720 not valid, omitting
1997/20021998/20021999/20022000/2002Warning: shot 164646 not valid, omitting
2001/2002Finished Training Normalizer on 2002 files in 12.8761970997 seconds
saved normalization data from {d3d: 460} shots ( {d3d: 155} disruptive )
Machine: d3d:
Var Normalizer.
stds: [  … ...done
no previous checkpoint found
10 epochs left to go
warmup 0
Starting process to fetch data
_________________________________________________________________
Layer (type)                 Output Shape              Param #   
=================================================================
input_2 (InputLayer)         (128, 128, 1)             0         
_________________________________________________________________
time_distributed_1 (TimeDist (128, 128, 1)             0         
_________________________________________________________________
lstm_1 (LSTM)                (128, 128, 200)           161600    
_________________________________________________________________
dropout_1 (Dropout)          (128, 128, 200)           0         
_________________________________________________________________
lstm_2 (LSTM)                (128, 128, 200)           320800    
_________________________________________________________________
dropout_2 (Dropout)          (128, 128, 200)           0         
_________________________________________________________________
time_distributed_2 (TimeDist (128, 128, 1)             201       
=================================================================
Total params: 482,601
Trainable params: 482,601
Non-trainable params: 0
_________________________________________________________________

Epoch -1/10Compilation finished in 3.38s[0] step: 0 [ETA: 17147.06s] [0.00/232], loss: 2.21820 [2.21820] | walltime: 5.8098 | 1.48E+02 Examples/sec | 8.66E-01 sec/batch [96.6% calc., 3.4
…
