…
shots already processed.
validate: 113 shots, 36 disruptive
training: 232 shots, 83 disruptive
testing: 115 shots, 36 disruptive
...done
normalizationshots_picked = 2002
Machine d3d:
loaded normalization data from {d3d: 460} shots ( {d3d: 155} disruptive )
Machine: d3d:
Var Normalizer.
stds: [  … ...done
loading from epoch 14
5 epochs left to go
warmup 0
Starting process to fetch data
_________________________________________________________________
Layer (type)                 Output Shape              Param #   
=================================================================
input_2 (InputLayer)         (128, 128, 1)             0         
_________________________________________________________________
time_distributed_1 (TimeDist (128, 128, 1)             0         
_________________________________________________________________
lstm_1 (LSTM)                (128, 128, 200)           161600    
_________________________________________________________________
dropout_1 (Dropout)          (128, 128, 200)           0         
_________________________________________________________________
lstm_2 (LSTM)                (128, 128, 200)           320800    
_________________________________________________________________
dropout_2 (Dropout)          (128, 128, 200)           0         
_________________________________________________________________
time_distributed_2 (TimeDist (128, 128, 1)             201       
=================================================================
Total params: 482,601
Trainable params: 482,601
Non-trainable params: 0
_________________________________________________________________

Epoch 14/20Compilation finished in 3.35s[0] step: 0 [ETA: 13662.34s] [0.00/232], loss: 1.26683 [1.26683] | walltime: 6.3322 | 1.49E+02 Examples/sec | 8.58E-01 sec/batch [97.9% calc., 2.1
…
